…
posts/research/knowledge-distillation-papers/","title":"knowledge distillation papers"},{"content":"structure of finetune models 首先有必要记录一下finetune model的结构（以wav2vec2、hubert、data2vec）为例：\nwav2vec2 1 2 3 4 5 6 7 8 9 10 11 12 13 14 15 16 17 18 19 20 21 22 23 24 25 26 27 28 29 30 31 32 33 34 35 36 37 38 39 40 41 42 43 44 45 46 47 48 49 50 51 52 53 54 55 56 57 58 59 60 61 62 63 64 65 66 67 68 69 70 71 72 73 74 75 76 77 78 79 80 81 82  Wav2VecCtc( (w2v_encoder): Wav2VecEncoder( (w2v_model): Wav2Vec2Model( (feature_extractor): ConvFeatureExtractionModel( (conv_layers): ModuleList( (0): Sequential( (0): Conv1d(1, 512, kernel_size=(10,), stride=(5,), bias=False) (1): Dropout(p=0.0, inplace=False) (2): Fp32GroupNorm(512, 512, eps=1e-05, affine=True) (3): GELU() ) (1): Sequential( (0): Conv1d(512, 512, kernel_size=(3,), stride=(2,), bias=False) (1): Dropout(p=0.0, inplace=False) (2): GELU() ) (2): Sequential( (0): Conv1d(512, 512, kernel_size=(3,), stride=(2,), bias=False) (1): Dropout(p=0.0, inplace=False) (2): GELU() ) (3): Sequential( (0): Conv1d(512, 512, kernel_size=(3,), stride=(2,), bias=False) (1): Dropout(p=0.0, inplace=False) (2): GELU() ) (4): Sequential( (0): Conv1d(512, 512, kernel_size=(3,), stride=(2,), bias=False) (1): Dropout(p=0.0, inplace=False) (2): GELU() ) (5): Sequential( (0): Conv1d(512, 512, kernel_size=(2,), stride=(2,), bias=False) (1): Dropout(p=0.0, inplace=False) (2): GELU() ) (6): Sequential( (0): Conv1d(512, 512, kernel_size=(2,), stride=(2,), bias=False) (1): Dropout(p=0.0, inplace=False) (2): GELU() ) ) ) (post_extract_proj): Linear(in_features=512, out_features=768, bias=True) (dropout_input): Dropout(p=0.0, inplace=False) (dropout_features): Dropout(p=0.1, inplace=False) (quantizer): None (project_q): None (encoder): TransformerEncoder( (pos_conv): Sequential( (0): Conv1d(768, 768, kernel_size=(128,), stride=(1,), padding=(64,), groups=16) (1): SamePad() (2): GELU() ) (layers): ModuleList( (0): TransformerSentenceEncoderLayer( (self_attn): MultiheadAttention( (dropout_module): FairseqDropout() (k_proj): Linear(in_features=768, out_features=768, bias=True) (v_proj): Linear(in_features=768, out_features=768, bias=True) (q_proj): Linear(in_features=768, out_features=768, bias=True) (out_proj): Linear(in_features=768, out_features=768, bias=True) ) (dropout1): Dropout(p=0.0, inplace=False) (dropout2): Dropout(p=0.1, inplace=False) (dropout3): Dropout(p=0.0, inplace=False) (self_attn_layer_norm): LayerNorm((768,), eps=1e-05, elementwise_affine=True) (fc1): Linear(in_features=768, out_features=3072, bias=True) (fc2): Linear(in_features=3072, out_features=768, bias=True) (final_layer_norm): LayerNorm((768,), eps=1e-05, elementwise_affine=True) ) ... ) (layer_norm): LayerNorm((768,), eps=1e-05, elementwise_affine=True) ) (layer_norm): LayerNorm((512,), eps=1e-05, elementwise_affine=True) (final_proj): None ) (final_dropout): Dropout(p=0.0, inplace=False) (proj): Linear(in_features=768, out_features=32, bias=True) ) )   hubert 1 2 3 4 5 6 7 8 9 10 11 12 13 14 15 16 17 18 19 20 21 22 23 24 25 26 27 28 29 30 31 32 33 34 35 36 37 38 39 40 41 42 43 44 45 46 47 48 49 50 51 52 53 54 55 56 57 58 59 60 61 62 63 64 65 66 67 68 69 70 71 72 73 74 75 76 77 78 79 80  HubertCtc( (w2v_encoder): HubertEncoder( (w2v_model): HubertModel( (feature_extractor): ConvFeatureExtractionModel( (conv_layers): ModuleList( (0): Sequential( (0): Conv1d(1, 512, kernel_size=(10,), stride=(5,), bias=False) (1): Dropout(p=0.0, inplace=False) (2): Fp32GroupNorm(512, 512, eps=1e-05, affine=True) (3): GELU() ) (1): Sequential( (0): Conv1d(512, 512, kernel_size=(3,), stride=(2,), bias=False) (1): Dropout(p=0.0, inplace=False) (2): GELU() ) (2): Sequential( (0): Conv1d(512, 512, kernel_size=(3,), stride=(2,), bias=False) (1): Dropout(p=0.0, inplace=False) (2): GELU() ) (3): Sequential( (0): Conv1d(512, 512, kernel_size=(3,), stride=(2,), bias=False) (1): Dropout(p=0.0, inplace=False) (2): GELU() ) (4): Sequential( (0): Conv1d(512, 512, kernel_size=(3,), stride=(2,), bias=False) (1): Dropout(p=0.0, inplace=False) (2): GELU() ) (5): Sequential( (0): Conv1d(512, 512, kernel_size=(2,), stride=(2,), bias=False) (1): Dropout(p=0.0, inplace=False) (2): GELU() ) (6): Sequential( (0): Conv1d(512, 512, kernel_size=(2,), stride=(2,), bias=False) (1): Dropout(p=0.0, inplace=False) (2): GELU() ) ) ) (post_extract_proj): Linear(in_features=512, out_features=768, bias=True) (dropout_input): Dropout(p=0.0, inplace=False) (dropout_features): Dropout(p=0.1, inplace=False) (encoder): TransformerEncoder( (pos_conv): Sequential( (0): Conv1d(768, 768, kernel_size=(128,), stride=(1,), padding=(64,), groups=16) (1): SamePad() (2): GELU() ) (layers): ModuleList( (0): TransformerSentenceEncoderLayer( (self_attn): MultiheadAttention( (dropout_module): FairseqDropout() (k_proj): Linear(in_features=768, out_features=768, bias=True) (v_proj): Linear(in_features=768, out_features=768, bias=True) (q_proj): Linear(in_features=768, out_features=768, bias=True) (out_proj): Linear(in_features=768, out_features=768, bias=True) ) (dropout1): Dropout(p=0.0, inplace=False) (dropout2): Dropout(p=0.1, inplace=False) (dropout3): Dropout(p=0.0, inplace=False) (self_attn_layer_norm): LayerNorm((768,), eps=1e-05, elementwise_affine=True) (fc1): Linear(in_features=768, out_features=3072, bias=True) (fc2): Linear(in_features=3072, out_features=768, bias=True) (final_layer_norm): LayerNorm((768,), eps=1e-05, elementwise_affine=True) ) ... ) (layer_norm): LayerNorm((768,), eps=1e-05, elementwise_affine=True) ) (layer_norm): LayerNorm((512,), eps=1e-05, elementwise_affine=True) (final_proj): None ) (final_dropout): Dropout(p=0.0, inplace=False) (proj): Linear(in_features=768, out_features=32, bias=True) ) )   data2vec 1 2 3 4 5 6 7 8 9 10 11 12 13 14 15 16 17 18 19 20 21 22 23 24 25 26 27 28 29 30 31 32 33 34 35 36 37 38 39 40 41 42 43 44 45 46 47 48 49 50 51 52 53 54 55 56 57 58 59 60 61 62 63 64 65 66 67 68 69 70 71 72 73 74 75 76 77 78 79 80 81 82 83 84 85 86 87 88 89 90 91 92 93 94 95 96 97 98 99 100 101 102 103 104 105 106 107 108 109 110 111 112 113 114 115 116 117 118 119 120 121 122 123 124 125 126 127 128 129 130 131 132 133 134 135 136 137 138 139 140 141 142 143 144 145 146 147 148 149 150 151  Wav2VecCtc( (w2v_encoder): Wav2VecEncoder( (w2v_model): Data2VecAudioModel( (feature_extractor): ConvFeatureExtractionModel( (conv_layers): ModuleList( (0): Sequential( (0): Conv1d(1, 512, kernel_size=(10,), stride=(5,), bias=False) (1): Dropout(p=0.0, inplace=False) (2): Sequential( (0): TransposeLast() (1): Fp32LayerNorm((512,), eps=1e-05, elementwise_affine=True) (2): TransposeLast() ) (3): GELU() ) (1): Sequential( (0): Conv1d(512, 512, kernel_size=(3,), stride=(2,), bias=False) (1): Dropout(p=0.0, inplace=False) (2): Sequential( (0): TransposeLast() (1): Fp32LayerNorm((512,), eps=1e-05, elementwise_affine=True) (2): TransposeLast() ) (3): GELU() ) (2): Sequential( (0): Conv1d(512, 512, kernel_size=(3,), stride=(2,), bias=False) (1): Dropout(p=0.0, inplace=False) (2): Sequential( (0): TransposeLast() (1): Fp32LayerNorm((512,), eps=1e-05, elementwise_affine=True) (2): TransposeLast() ) (3): GELU() ) (3): Sequential( (0): Conv1d(512, 512, kernel_size=(3,), stride=(2,), bias=False) (1): Dropout(p=0.0, inplace=False) (2): Sequential( (0): TransposeLast() (1): Fp32LayerNorm((512,), eps=1e-05, elementwise_affine=True) (2): TransposeLast() ) (3): GELU() ) (4): Sequential( (0): Conv1d(512, 512, kernel_size=(3,), stride=(2,), bias=False) (1): Dropout(p=0.0, inplace=False) (2): Sequential( (0): TransposeLast() (1): Fp32LayerNorm((512,), eps=1e-05, elementwise_affine=True) (2): TransposeLast() ) (3): GELU() ) (5): Sequential( (0): Conv1d(512, 512, kernel_size=(2,), stride=(2,), bias=False) (1): Dropout(p=0.0, inplace=False) (2): Sequential( (0): TransposeLast() (1): Fp32LayerNorm((512,), eps=1e-05, elementwise_affine=True) (2): TransposeLast() ) (3): GELU() ) (6): Sequential( (0): Conv1d(512, 512, kernel_size=(2,), stride=(2,), bias=False) (1): Dropout(p=0.0, inplace=False) (2): Sequential( (0): TransposeLast() (1): Fp32LayerNorm((512,), eps=1e-05, elementwise_affine=True) (2): TransposeLast() ) (3): GELU() ) ) ) (post_extract_proj): Linear(in_features=512, out_features=768, bias=True) (dropout_input): Dropout(p=0.0, inplace=False) (dropout_features): Dropout(p=0.0, inplace=False) (encoder): TransformerEncoder( (pos_conv): Sequential( (0): Sequential( (0): Conv1d(768, 768, kernel_size=(19,), stride=(1,), padding=(9,), groups=16) (1): SamePad() (2): TransposeLast() (3): LayerNorm((768,), eps=1e-05, elementwise_affine=False) (4): TransposeLast() (5): GELU() ) (1): Sequential( (0): Conv1d(768, 768, kernel_size=(19,), stride=(1,), padding=(9,), groups=16) (1): SamePad() (2): TransposeLast() (3): LayerNorm((768,), eps=1e-05, elementwise_affine=False) (4): TransposeLast() (5): GELU() ) (2): Sequential( (0): Conv1d(768, 768, kernel_size=(19,), stride=(1,), padding=(9,), groups=16) (1): SamePad() (2): TransposeLast() (3): LayerNorm((768,), eps=1e-05, elementwise_affine=False) (4): TransposeLast() (5): GELU() ) (3): Sequential( (0): Conv1d(768, 768, kernel_size=(19,), stride=(1,), padding=(9,), groups=16) (1): SamePad() (2): TransposeLast() (3): LayerNorm((768,), eps=1e-05, elementwise_affine=False) (4): TransposeLast() (5): GELU() ) (4): Sequential( (0): Conv1d(768, 768, kernel_size=(19,), stride=(1,), padding=(9,), groups=16) (1): SamePad() (2): TransposeLast() (3): LayerNorm((768,), eps=1e-05, elementwise_affine=False) (4): TransposeLast() (5): GELU() ) ) (layers): ModuleList( (0): TransformerSentenceEncoderLayer( (self_attn): MultiheadAttention( (dropout_module): FairseqDropout() (k_proj): Linear(in_features=768, out_features=768, bias=True) (v_proj): Linear(in_features=768, out_features=768, bias=True) (q_proj): Linear(in_features=768, out_features=768, bias=True) (out_proj): Linear(in_features=768, out_features=768, bias=True) ) (dropout1): Dropout(p=0.0, inplace=False) (dropout2): Dropout(p=0.1, inplace=False) (dropout3): Dropout(p=0.0, inplace=False) (self_attn_layer_norm): LayerNorm((768,), eps=1e-05, elementwise_affine=True) (fc1): Linear(in_features=768, out_features=3072, bias=True) (fc2): Linear(in_features=3072, out_features=768, bias=True) (final_layer_norm): LayerNorm((768,), eps=1e-05, elementwise_affine=True) ) ... ) (layer_norm): LayerNorm((768,), eps=1e-05, elementwise_affine=True) ) (layer_norm): LayerNorm((512,), eps=1e-05, elementwise_affine=True) (final_proj): None ) (final_dropout): Dropout(p=0.0, inplace=False) (proj): Linear(in_features=768, out_features=32, bias=True) ) )   对比可以看出，wav2vec2和hubert的结构基本类似，而与data2vec则有以下区别：\n  hubert的feature extractor只有第一层有normalization，而data2vec的feature extractor每一层都有normalization，而且一个是groupnorm，一个是layernorm。\nhubert:\n1  (2): Fp32GroupNorm(512, 512, eps=1e-05, affine=True)   data2vec:\n1 2 3 4 5  (2): Sequential( (0): TransposeLast() (1): Fp32LayerNorm((512,), eps=1e-05, elementwise_affine=True) (2): TransposeLast() )   不过两者的区别应该不本质，因为wav2vec2原论文就是layernorm。\n  hubert的pos conv只有1层，而data2vec的pos conv有5层，且架构略有不同： hubert:\n1 2 3 4 5  (pos_conv): Sequential( (0): Conv1d(768, 768, kernel_size=(128,), stride=(1,), padding=(64,), groups=16) (1): SamePad() (2): GELU() )   data2vec:\n1 2 3 4 5 6 7 8  (0): Sequential( (0): Conv1d(768, 768, kernel_size=(19,), stride=(1,), padding=(9,), groups=16) (1): SamePad() (2): TransposeLast() (3): LayerNorm((768,), eps=1e-05, elementwise_affine=False) (4): TransposeLast() (5): GELU() )   此外，论文中特别强调wav input和每一层conv的输出全是要经过normalization的。\n两者所起到的作用都是relative positional embedding。\n  config for finetune 以下均以base model为例：\n    wav2vec2 hubert data2vec     updates 80000 80000 -   lr(max) 2e-5/3e-5(librilight),1e-4(librispeech) 5e-4 -   normalization false false true    ","date":"2022-08-12T00:13:05+08:00","permalink":"https://ther-nullptr.github.io/posts/research/ssl-model-finetune/","title":"SSL model finetune"},{"content":"以下记录了superb任务中不同的downstream model：\nKS 1 2 3 4 5 6 7 8 9 10 11  DownstreamExpert( (projector): Linear(in_features=768, out_features=256, bias=True) (model): UtteranceLevel( (pooling): MeanPooling() (post_net): FrameLevel( (hiddens): Sequential() (linear): Linear(in_features=256, out_features=12, bias=True) ) ) (objective): CrossEntropyLoss() )   ASR 1 2 3 4 5 6 7 8 9 10 11 12 13 14 15 16 17  DownstreamExpert( (projector): Linear(in_features=768, out_features=1024, bias=True) (model): RNNs( (rnns): ModuleList( (0): RNNLayer( (layer): LSTM(1024, 1024, batch_first=True, bidirectional=True) (dp): Dropout(p=0.2, inplace=False) ) (1): RNNLayer( (layer): LSTM(2048, 1024, batch_first=True, bidirectional=True) (dp): Dropout(p=0.2, inplace=False) ) ) (linear): Linear(in_features=2048, out_features=32, bias=True) ) (objective): CTCLoss() )   SID 1 2 3 4 5 6 7 8 9 10 11  DownstreamExpert( (projector): Linear(in_features=768, out_features=256, bias=True) (model): UtteranceLevel( (pooling): MeanPooling() (post_net): FrameLevel( (hiddens): Sequential() (linear): Linear(in_features=256, out_features=1251, bias=True) ) ) (objective): CrossEntropyLoss() )   ","date":"2022-08-12T00:13:05+08:00","permalink":"https://ther-nullptr.github.io/posts/research/superb-downstream/","title":"SUPERB downstream"},{"content":"小黑前传的名字叫作《追忆似火年华》，不过小黑后传似乎和“似火”并不怎么沾边，索性就叫小黑后传好了，以后有想法再更新一个文艺点的标题。\n一 2022.6.19 考完试的第一天。\n“您当日的听歌时间为8h42min，位居好友榜榜首，恭喜！”\n虽然知道自己网抑云的习惯由来已久（确切地来讲，网易云和QQ音乐都听，
…
6]: a = torch.nn.Parameter(torch.Tensor([0])) In [7]: a Out[7]: Parameter containing: tensor([0.], requires_grad=True)   nn.Parameter默认requires_grad=True\n一些常用参量（用于更新参数等）：\n1 2 3 4 5 6 7 8 9 10 11 12 13 14 15 16 17 18 19 20 21 22 23 24 25 26 27 28 29 30 31 32 33 34 35 36 37 38 39 40  \u0026gt;\u0026gt; class Net(torch.nn.Module): ...: def __init__(self): ...: super().__init__() ...: self.linear_1 = torch.nn.Linear(3,2) ...: self.linear_2 = torch.nn.Linear(2,1) \u0026gt;\u0026gt; net = Net() \u0026gt;\u0026gt; net.modules \u0026gt;\u0026gt; \u0026lt;bound method Module.modules of Net( (linear_1): Linear(in_features=3, out_features=2, bias=True) (linear_2): Linear(in_features=2, out_features=1, bias=True) )\u0026gt; \u0026gt;\u0026gt; net.named_modules \u0026gt;\u0026gt; \u0026lt;bound method Module.named_modules of Net( (linear_1): Linear(in_features=3, out_features=2, bias=True) (linear_2): Linear(in_features=2, out_features=1, bias=True) )\u0026gt; \u0026gt;\u0026gt; net.state_dict() \u0026gt;\u0026gt; OrderedDict([(\u0026#39;linear_1.weight\u0026#39;, tensor([[-0.5300, -0.5476, 0.0943], [-0.2907, 0.1068, 0.5465]])), (\u0026#39;linear_1.bias\u0026#39;, tensor([ 0.3375, -0.4314])), (\u0026#39;linear_2.weight\u0026#39;, tensor([[ 0.0114, -0.2185]])), (\u0026#39;linear_2.bias\u0026#39;, tensor([0.1354]))]) \u0026gt;\u0026gt; net.parameters \u0026gt;\u0026gt; \u0026lt;bound method Module.parameters of Net( (linear_1): Linear(in_features=3, out_features=2, bias=True) (linear_2): Linear(in_features=2, out_features=1, bias=True) )\u0026gt; \u0026gt;\u0026gt; net.lambda1 = torch.nn.Parameter(torch.randn((1,1))) \u0026gt;\u0026gt; net.lambda1 \u0026gt;\u0026gt; Parameter containing: tensor([[-0.0876]], requires_grad=True) \u0026gt;\u0026gt; net.state_dict() \u0026gt;\u0026gt; OrderedDict([(\u0026#39;lambda1\u0026#39;, tensor([[-0.0876]])), (\u0026#39;linear_1.weight\u0026#39;, tenso
…
